HW1/models/model.ckpt (torch, 21440 bytes, 3 tensors)

layers.0.weight f4 [64, 74]
000000 33 8b 17 3c 21 53 df 3d 68 5e 8d 3d 25 6e 0d 3a
       0.009249496 0.109045275 0.06902772 0.0005395136
000010 2b 6d d3 3d a6 3b d9 3c f6 ff ae bc 9e 97 1e 3d
       0.103235565 0.0265177 -0.021362286 0.038718812
000020 2f dd 5d 3d 0a 13 52 3c 8e 74 56 bc 93 73 9d bc
       0.054166015 0.012821922 -0.013089312 -0.01922015
000030 56 af b3 bc c1 42 8e bc bb c9 34 3a 6a 31 82 3c
       -0.021934193 -0.017365815 0.0006896515 0.015892703
000040 0e e3 74 3d e0 e3 91 3c b7 d2 ec 3d 45 9b b4 3d
       0.05978685 0.017808855 0.11563628 0.08818678
000050 4f b6 b3 3d 31 2c 89 bd 13 7e a0 3d 3b de bf 3d
       0.08775007 -0.06697882 0.07836547 0.09368559
000060 21 f4 94 3d 96 3d 33 bd 81 d5 86 3d 09 a5 b3 3d
       0.072731264 -0.043759905 0.065836914 0.08771712
000070 e4 e2 e3 bd 09 b0 4c 3d 4f 11 8d 3d 48 41 d4 bd
       -0.1112726 0.049972568 0.06888067 -0.10364014
000080 e3 ed c9 bc ae 5f 0e bd 7d 34 62 bc de 66 56 3d
       -0.024649566 -0.034759216 -0.0138064595 0.052344196
000090 11 09 c5 bc 3a 5b bf bd c3 d0 49 3d b2 c1 77 3d
       -0.024052175 -0.09343572 0.049271356 0.060487457
0000a0 9f 4c 1e bc 94 fc ec 3d f6 d3 ba bc 79 8d a8 bd
       -0.009661823 0.11571613 -0.022806149 -0.08230109
0000b0 8c 4f fc bd 6e 8f b7 bd 25 b5 ac 3d 54 fd 26 bd
       -0.1231986 -0.08962904 0.08432988 -0.040768936
0000c0 dc 31 41 3d 98 37 9c bd 63 73 9d bd c7 6f bb 3d
       0.04716669 -0.07627791 -0.07688024 0.09152179
0000d0 3d 4f 3a 3d 3b e6 3d bd 94 2b 6b 3d ba 2d 6b bd
       0.045485724 -0.046362143 0.057414606 -0.057416655
0000e0 36 fb c6 bb 86 ba a7 bd 87 15 03 3d ae 57 87 bd
       -0.006072427 -0.081898734 0.032002952 -0.066085204
0000f0 01 76 ae bd 35 8d b5 bd ee 89 35 bd 47 62 be 3c
       -0.08518601 -0.08864824 -0.044320993 0.023240222
000100 27 74 42 bd ac b7 a6 bd 5a 71 89 3d 28 13 ca 3c
       -0.047474053 -0.081405014 0.06711073 0.024667338
000110 1f 9a f0 3d 5e 62 b9 3d 37 4f 7c 3d df 70 97 3d
       0.11748146 0.09051965 0.061598983 0.07394575
000120 d1 93 bb bd a9 74 87 bd 1f ae a3 3d 64 52 e8 3d
       -0.09159053 -0.06614048 0.07992195 0.1134384
000130 1e ac aa 3d 7a 74 29 bd f5 c6 a4 3d 61 3b f1 bd
       0.0833361 -0.041370846 0.080457605 -0.11778904
000140 12 15 1f 3d 09 21 a6 bc cc dc 97 3d 25 33 de 3d
       0.038838454 -0.020279424 0.074151605 0.10849599
000150 9a 9c d9 3d e8 14 dd 3d 13 37 8d 3d d6 5e 02 bd
       0.106255725 0.10795003 0.0689527 -0.031828724
000160 49 81 5d 3c 49 78 c5 bc ec 92 a4 3d 7b 68 ff 3b
       0.0135195935 -0.024105208 0.080358356 0.0077944375
000170 09 68 6d bd 16 51 4a bd d5 1b 97 bc 37 fe 30 3d
       -0.057960544 -0.049393736 -0.018445889 0.04321119
000180 7e 6c c6 3d 44 2d 6d 3c 62 f9 a1 bd a9 fa 64 3d
       0.09688662 0.014476124 -0.07908894 0.05590311
000190 df 26 66 bd f4 cb 88 3d 5e 18 7a 3d ce 8c f0 3c
       -0.056189414 0.06679526 0.061058395 0.029364016
0001a0 fd 2a ce bb 28 78 f0 3c 2c 69 7c 3d 93 b4 c0 3d
       -0.0062917457 0.02935417 0.061623737 0.09409442
0001b0 7c 20 49 bd 82 b1 b5 3d 0e cc af 3b 37 61 11 3d
       -0.049103245 0.088717476 0.0053649014 0.035493102
0001c0 ee 7b ac bd a7 0d 5c 3c d8 66 cc 3d 01 dd 55 3d
       -0.08422075 0.013430989 0.099805534 0.05221272
0001d0 ca 8d ac 3b 3a c0 cb bc 8e 50 67 3d 5e d7 bc 3d
       0.005265926 -0.024871934 0.056473307 0.092207655
0001e0 c3 3c e5 3d e2 d2 5a bb 2e 2f bb 3c 1b 45 82 bc
       0.1119323 -0.0033389856 0.022849645 -0.015902093
0001f0 89 e6 72 3d 45 ea 6c bd 02 0d 9a 3d 6c cd 9c 3c
       0.059301887 -0.057840604 0.07522012 0.019140922
000200 fc 7d 44 bb e5 4f 9c 3c 61 28 a2 3d 85 14 1b bd
       -0.002998232 0.019081065 0.07917858 -0.037861366
000210 76 8c ef bd 41 6a 05 3d 00 da b5 bd 5b c9 9d 3d
       -0.11696713 0.032572035 -0.08879471 0.07704421
000220 72 f2 f7 3d 17 0d 04 3d e1 f3 e2 3d 76 5f 94 3d
       0.1210679 0.032239046 0.110816725 0.0724477
000230 80 66 4c bd dc 67 c5 3d 9b ff d7 bd 2d ed bb bd
       -0.04990244 0.0963895 -0.105468 -0.09176097
000240 f3 1f 8e bd 2d 3b 47 bd a1 73 77 3c 98 91 2f 3d
       -0.069396876 -0.04864042 0.015103252 0.04286346
000250 54 9b ea 3d 08 f7 09 bc 5a b5 95 bd fb 6a 23 3d
       0.11455408 -0.008420713 -0.07309981 0.039896946
000260 c7 cb 6b 3c ce 0d 92 bd eb fa cc bb 9d 67 49 bd
       0.014391846 -0.07131539 -0.0062554977 -0.04917108
000270 9c f0 7b 3d 59 8f 6f 3d 86 3f 89 3d 17 fe 59 3d
       0.06150876 0.058486316 0.06701569 0.053220835
000280 ff c0 ec bc 78 57 c6 3d ec 7d 9a 3c 0a df 1a 3d
       -0.028900621 0.09684652 0.018858872 0.037810363
000290 a2 22 a9 bd 7e 29 15 bd 87 0d 58 3d c0 26 d6 3d
       -0.08258559 -0.036416523 0.052747276 0.1045661
0002a0 c0 61 e6 bd 20 ca e0 bc cd 9b d7 bc cd 42 25 bd
       -0.11249113 -0.02744013 -0.026319409 -0.04034691
0002b0 1c 88 43 bd bc ad 1b bd 16 85 84 3c 72 8f 8e 3d
       -0.047737226 -0.038007483 0.016176742 0.06960954
0002c0 e9 54 bd 3d d0 1f e6 3c ea 7c 3b 3c e4 47 e1 ba
       0.09244711 0.028091341 0.011443356 -0.0017187563
0002d0 1b af 5e 3d 2e 07 2a 3c 5a a9 94 3d 0d 5c 08 bd
       0.054366212 0.010377688 0.07258864 -0.03329091
0002e0 42 4b 84 bd 0a 14 89 3c d6 7d 9c 3d b6 d3 9e bd
       -0.06459667 0.016733188 0.07641189 -0.077552244
0002f0 5b 91 d1 bc e4 a7 cf bc d1 07 8a bd b9 c8 b2 3d
       -0.025582006 -0.025348611 -0.06739772 0.08729691
000300 02 f4 90 bd e9 34 25 bd 0f 20 76 3d e3 38 15 3d
       -0.07077791 -0.040333662 0.060089167 0.036431205
000310 88 1c ca bc ea 32 2a bd 03 4e b8 3d 8c 62 a1 3d
       -0.024671808 -0.04155246 0.089992546 0.078801244
000320 29 0a a6 3d 74 82 bf 3d 49 40 d0 3d 08 06 e6 3b
       0.08107407 0.09351054 0.101685114 0.007019762
000330 38 ea c1 bb f3 15 96 bd 3b ab c8 3d be 87 87 3c
       -0.0059178136 -0.07328405 0.097982846 0.01654422
000340 b3 0f 5c 3c f3 0d c2 3d 01 0b de bd c8 bc e2 3d
       0.013431477 0.09475317 -0.108419426 0.110711634
000350 6a 63 0b bd 5b aa b2 bd 72 02 34 bd ed 93 e3 3d
       -0.034030356 -0.08723899 -0.043947645 0.11112199
000360 a4 13 af 3b 15 ce d8 bd 3e 71 90 bc 94 9d e1 3c
       0.0053429175 -0.10586182 -0.017632123 0.02754096
000370 4a 41 a8 3d 5b c2 83 3d e2 4c 3d bb 2d 22 fc 3c
       0.08215578 0.06433555 -0.0028884937 0.030778015
000380 3d a3 c4 bc 28 c5 92 3d d5 12 77 3d ab 74 82 bd
       -0.02400362 0.07166511 0.060320694 -0.06369909
000390 49 dc d1 3d f2 ea 9f 3d 3a 32 4b 3d 15 7b 9c 3d
       0.10247094 0.07808484 0.049608447 0.076406635
0003a0 4f a7 db bd 33 03 b2 3c ca ee f8 bc 53 60 d2 bd
       -0.10725271 0.021730041 -0.030387301 -0.10272279
0003b0 e6 13 ed bb d1 01 17 bd b5 f5 6f 3d d5 3c ca 3d
       -0.007235038 -0.036866967 0.058583934 0.09874884
0003c0 8c 10 b1 3d 6d a3 1c bb 64 07 31 bd f5 3d 79 3d
       0.08645734 -0.002390112 -0.04321994 0.060850102
0003d0 23 69 c1 bd d7 4c bc 3b 6c 6c 94 bd 84 aa 2b 3b
       -0.09443881 0.0057464647 -0.07247242 0.0026194165
0003e0 66 07 98 bd 00 29 5b bc 09 da 4f bd 9e b5 82 3c
       -0.07423286 -0.013376474 -0.050745044 0.015955742
0003f0 d1 f4 a9 3b 24 16 b7 bd 16 7e 87 3d 12 50 c2 3d
       0.005186655 -0.0893977 0.06615846 0.094879285

layers.0.bias f4 [64]
000000 8e bd b9 3d 27 5c b4 3d 8b f4 ab bd f8 bd ca 3c
       0.09069358 0.08806639 -0.08396252 0.024748787
000010 83 d8 8b 3d 39 70 78 3c cc ed 3a bd 14 e2 81 3d
       0.06828406 0.015163475 -0.045636937 0.06341949
000020 dd 2a a5 bd 1e f5 94 3d 80 2c a8 bd 5a 44 98 3d
       -0.08064816 0.07273315 -0.08211613 0.07434912
000030 df 5d be 3d 8f 22 86 bd eb b3 46 bb c0 04 2a 3d
       0.09295248 -0.0654956 -0.0030319642 0.041508436
000040 e7 0e e8 bd e0 bd cb 3b 5e c3 6a 3d a2 6e c4 bc
       -0.113309674 0.006217703 0.057315223 -0.023978535
000050 dd 12 cc bd c3 42 8a 3c cc fc dc bd 43 d7 bb bd
       -0.099645354 0.016877538 -0.10790405 -0.09171917
000060 64 38 14 3d 58 33 0a bd 62 e5 9a bd 27 96 c3 bb
       0.03618659 -0.03374037 -0.075632825 -0.0059688273
000070 41 aa f2 bc 78 a3 2f bd 12 73 37 bd 25 c1 2f 3d
       -0.029622199 -0.042880505 -0.044787474 0.042908806
000080 1e 53 ec bd f0 ec 91 3d dd ae a3 3d 51 fc 63 3d
       -0.11539291 0.0712527 0.07992337 0.05566055
000090 ed 85 df 3c 26 33 7a 3d b5 53 95 3d 48 b0 a2 bc
       0.02728554 0.061083935 0.072913565 -0.019859448
0000a0 12 c3 ea 3d 65 14 b2 bd c9 3f 8b bc 0c 21 84 3d
       0.11462988 -0.08695296 -0.016998189 0.06451616
0000b0 a8 3b 4d 3d 73 c6 a0 3c 6b f3 6c 3d 96 dd 87 3d
       0.05010572 0.019625878 0.05784933 0.06634061
0000c0 3e 87 ea bd 47 16 28 bc d2 fc b5 bd 29 4f d6 3c
       -0.11451577 -0.010259218 -0.08886112 0.026160793
0000d0 b8 d8 40 bd b2 e6 c0 bd 6a e2 de 3d 54 87 de bc
       -0.04708168 -0.09419002 0.10883029 -0.027164139
0000e0 b0 63 88 3d 38 e1 5e 3d d8 29 e8 bc 22 44 29 3d
       0.06659639 0.054414004 -0.028340265 0.041324742
0000f0 56 a4 cb bd eb a8 92 bd 10 d4 91 3d 1a 92 90 bd
       -0.09943454 -0.07161125 0.07120526 -0.07059117

layers.2.weight f4 [1, 64]
000000 11 55 fa bd 54 63 ab 3d 48 d8 a4 bd de 01 40 3d
       -0.122232564 0.08368555 -0.08049065 0.04687678
000010 de a5 49 bc 98 3a cc 3d 42 5b 1c 3e ec b4 6f 3d
       -0.012307612 0.09972113 0.15269187 0.05852215
000020 2a cd 9f bd 4e 8b ce 3d f6 30 df 3d 43 cd 96 3d
       -0.07802804 0.10085164 0.108980104 0.07363369
000030 1e c2 2d bc fd 77 12 3e de 79 bf 3d be 0b 89 3d
       -0.010605363 0.14303584 0.09349416 0.06691693
000040 f2 2a fa 3d a6 13 c6 bd 3a f3 ae 3d f0 22 22 be
       0.122152224 -0.096717164 0.085424855 -0.1583364
000050 05 6c c7 bd 00 9b 16 3e 5f 9f 27 be a0 a2 05 3e
       -0.097374 0.14707565 -0.16369389 0.13050318
000060 70 3f de bc e2 af 2a 3d eb e3 01 3e c6 47 8a bd
       -0.027129859 0.04167164 0.126846 -0.06751971
000070 68 ca ba 3d bb 5f ed 3d 18 17 96 3d de 1f 89 bc
       0.09120637 0.11590525 0.073286235 -0.016738828
000080 8b 1a 9a 3d 18 7f 4f 3c b5 da 13 be d9 69 5e be
       0.07524594 0.012664579 -0.14438899 -0.21720065
000090 df 9f 85 bc ca 48 bb bd 33 5a d6 3d 80 e6 30 3c
       -0.016311584 -0.09144743 0.10466423 0.010797143
0000a0 14 7f 7b 3d c4 1c e2 3d 8d df 8e 3d e3 d9 88 bd
       0.061400488 0.11040643 0.06976233 -0.066821836
0000b0 41 f0 1b 3e 0e df e2 3d 6d a1 e8 3b ce 84 ec 3d
       0.15228368 0.110777006 0.0070993216 0.11548768
0000c0 9e 8c c0 bd 12 87 48 be e4 10 56 3d 10 8e 0f be
       -0.094018206 -0.19582775 0.052262202 -0.14019036
0000d0 ac 29 c4 3d 0b 01 f7 bd 0e 2e e5 3d 0e 85 83 bd
       0.09578261 -0.12060746 0.11190425 -0.064218625
0000e0 3e 49 8d bd c3 c3 ac 3d 7a 39 f8 3d cf 11 3e bd
       -0.068987355 0.08435776 0.12120338 -0.046403702
0000f0 50 78 dc 3d 81 f2 ea bd 36 f5 df 3d c6 95 25 3d
       0.10765135 -0.11472035 0.10935442 0.04042604
